models/tmpyhpljvaw/_tmp.pth (torch, 406721 bytes, 66 tensors)

embeds.0.weight f4 [4, 3]
0.0064875414 -0.01373224 0.0013859094 -0.024618085 0.095245235 0.0986557 0.08935513 -0.113020375
-0.1306843 -0.017455334 -0.07644834 -0.018837836
00000000: 7195 d43b 30fd 60bc 67a7 b53a deab c9bc
00000010: ef0f c33d 000c ca3d d3ff b63d 3a77 e7bd
00000020: 1bd2 05be 7dfe 8ebc f390 9cbd ce51 9abc

embeds.1.weight f4 [3, 3]
0.002856052 0.0014873612 -0.008831006 0.066893876 0.12267459 0.09122491 -0.070940875 -0.12367133
-0.10651154
00000000: 9a2c 3b3b 8ff3 c23a ecaf 10bc a8ff 883d
00000010: d13c fb3d 20d4 ba3d 7349 91bd 6547 fdbd
00000020: b922 dabd

embeds.2.weight f4 [4, 3]
-0.011026701 -0.009410184 0.0026373875 -0.11562614 0.10393285 0.023111003 0.057427682 -0.029588107
-0.01777183 0.063345 -0.06638779 -0.03679603
00000000: 56a9 34bc 2c2d 1abc 05d8 2c3b 66cd ecbd
00000010: bfda d43d 4953 bd3c 4a39 6b3d c262 f2bc
00000020: 3b96 91bc 06bb 813d 52f6 87bd 6fb7 16bd

embeds.3.weight f4 [3, 3]
0.0068159266 -0.007023989 0.0008927278 0.005672622 0.0118204085 0.002987461 0.06188088 -0.049750555
0.06272158
00000000: 2358 df3b 7e29 e6bb f305 6a3a 67e1 b93b
00000010: 63aa 413c 47c9 433b ce76 7d3d 3dc7 4bbd
00000020: 2c74 803d

embeds.4.weight f4 [9, 5]
-0.0059474367 -0.009367502 0.0012055724 0.011607132 0.006113569 -0.097951494 0.07521085 0.10277454
0.02254453 0.070262015 0.05393974 -0.049296074 -0.077485494 -0.016202971 -0.047353037 0.12848552
-0.11285254 -0.14054914 -0.034558415 -0.14849667 0.017943714 -0.044447836 -0.06614125 -0.008455512
-0.028166978 -0.13934942 0.13729292 0.12319482 0.014254751 0.061603684 0.078442335 -0.05304084
-0.042685598 0.01940852 -0.026916012 -0.078383915 0.07590338 0.044567186 -0.04273258 0.042461876
-0.028133472 0.06823381 0.072331436 -0.01647736 0.04298304
00000000: b7e2 c2bb 277a 19bc 4c04 9e3a d72b 3e3c
00000010: 5554 c83b cb9a c8bd 2508 9a3d 757b d23d
00000020: 4eaf b83c 88e5 8f3d ebef 5c3d aeea 49bd
00000030: b7b0 9ebd 18bc 84bc 42f5 41bd b591 033e
00000040: 3c1f e7bd 1dec 0fbe 208d 0dbd 830f 18be
00000050: b2fe 923c ef0e 36bd 1075 87bd fd88 0abc
00000060: 6fbe e6bc 9db1 0ebe 8496 0c3e 914d fc3d
00000070: c28c 693c 2554 7c3d 60a6 a03d 5a41 59bd
00000080: 18d7 2ebd 9efe 9e3c f87e dcbc bf87 a0bd
00000090: 3b73 9b3d 158c 363d 5c08 2fbd 81ec 2d3d
000000a0: 2b78 e6bc 2bbe 8b3d 8122 943d 87fb 86bc
000000b0: fc0e 303d

embeds.5.weight f4 [3, 3]
-0.005429585 0.011003476 0.0056798356 -0.0037233303 0.073935546 -0.10959764 0.0034750646 -0.12714846
0.1156118
00000000: a9ea b1bb ec47 343c ea1d ba3b 1e03 74bb
00000010: 856b 973d ba74 e0bd e9bd 633b 3533 02be
00000020: e1c5 ec3d

embeds.6.weight f4 [3, 3]
0.006860389 0.003266023 -0.010611981 -0.010023378 0.009767598 0.021898633 0.0080737 0.020193042
-0.038265266
00000000: 1dcd e03b c60a 563b e0dd 2dbc 1839 24bc
00000010: 4608 203c c364 b33c 8d47 043c e16b a53c
00000020: 0abc 1cbd

embeds.7.weight f4 [5, 4]
-0.007602641 0.0048852633 -0.00547271 -0.0016811787 0.03521304 -0.015382346 -0.013495813 0.024110658
-0.031416237 0.004547515 -0.012003546 -0.030138167 0.054357503 0.03360507 0.016228244 0.011421809
-0.026216233 -0.013627978 -0.0022549354 -0.0013587759
00000000: 931f f9bb 8f14 a03b 6b54 b3bb ff5a dcba
00000010: 8c3b 103d 3c06 7cbc 8b1d 5dbc b783 c53c
00000020: 50ae 00bd 5203 953b 85aa 44bc 51e4 f6bc
00000030: f9a5 5e3d 78a5 093d 18f1 843c 8a22 3b3c
00000040: 6dc3 d6bc e247 5fbc 8ac7 13bb f418 b2ba

embeds.8.weight f4 [3, 3]
-0.014161477 -0.00811355 0.010726936 0.0030901912 0.029878387 0.011233991 0.024861887 -0.021907687
0.018855823
00000000: 8a05 68bc b2ee 04bc 08c0 2f3c ce84 4a3b
00000010: 85c3 f43c c60e 383c 28ab cb3c c077 b3bc
00000020: 8777 9a3c

embeds.9.weight f4 [3, 3]
0.0052503687 -0.002354417 0.006991077 -0.017939838 0.022016376 -0.017001092 -0.048028406 -0.019584494
-0.023829527
00000000: 490b ac3b 904c 1abb 6815 e53b 91f6 92bc
00000010: b05b b43c e045 8bbc 6fb9 44bd a96f a0bc
00000020: 2436 c3bc

bn_cont.weight f4 [23]
0.9846637 1.0286342 1.0456834 0.9874788 1.0828389 1.0561093 0.96299934 0.95487016
1.0041323 0.980858 1.0194287 1.0005944 0.9951279 0.96717674 1.0122229 0.9824726
0.97745466 0.97206277 0.9811845 0.97743803 0.978937 0.97440964 0.9545266
00000000: ec12 7c3f 49aa 833f f4d8 853f 69cb 7c3f
00000010: 779a 8a3f 972e 873f 2087 763f 5f72 743f
00000020: 6887 803f 8319 7b3f a47c 823f 7a13 803f
00000030: b4c0 7e3f e598 773f 8590 813f 5383 7b3f
00000040: 783a 7a3f 1bd9 783f e82e 7b3f 6139 7a3f
00000050: 9d9b 7a3f e972 793f db5b 743f

bn_cont.bias f4 [23]
-0.012002936 0.025605889 -0.003235394 -0.01170964 -0.0012467274 0.057357874 0.002626974 0.0038021887
-0.018338205 0.0061390097 0.019937824 0.01481817 0.034707088 0.016094796 0.053917028 0.00938763
0.003350059 -0.010588318 -0.017822566 0.032761075 -0.0040869075 -0.033109073 0.0017171816
00000000: f6a7 44bc 71c3 d13c e708 54bb cad9 3fbc
00000010: 3b69 a3ba 17f0 6a3d 4f29 2c3b 242e 793b
00000020: 013a 96bc bf29 c93b a654 a33c e9c7 723c
00000030: 0529 0e3d 3cd9 833c 1ad8 5c3d 93ce 193c
00000040: aa8c 5b3b a07a 2dbc a100 92bc 7a30 063d
00000050: 77eb 85bb 619d 07bd 0e13 e13a

bn_cont.running_mean f4 [23]
28.694332 214.13971 450.42874 166.85599 307.6184 280.9472 4648.932 603.9015
1205.8505 2442.05 1419.9902 2756.4617 334.51187 543.86554 578.8256 364.03546
865.32623 269.06253 2257.0796 2621.1155 2.0325427 1.7926383 1.8107754
00000000: fe8d e541 c423 5643 e136 e143 22db 2643
00000010: 28cf 9943 3e79 8c43 7547 9145 b2f9 1644
00000020: 37bb 9644 cda0 1845 b07f b144 6347 2c45
00000030: 8541 a743 65f7 0744 d7b4 1044 8a04 b643
00000040: e154 5844 0188 8643 4611 0d45 d9d1 2345
00000050: 2e15 0240 2c75 e53f 7dc7 e73f

bn_cont.running_var f4 [23]
211.28801 431770.7 2.6031208e+06 290392.84 1.3254134e+06 1.152579e+06 7.1860575e+06 265072.62
7.2601585e+06 2.7905718e+07 7.7339425e+06 2.8971338e+07 812837.25 2.819826e+06 3.0491092e+06 903118.4
6.596001e+06 523799.22 2.19546e+07 2.3474372e+07 2.5056221 1.6357661 1.8807797
00000000: bb49 5343 56d3 d248 c3e1 1e4a 1bcb 8d48
00000010: 2bcb a149 18b2 8c49 134d db4a 146e 8148
00000020: fd8f dd4a 5be7 d44b 6d05 ec4a a508 dd4b
00000030: 5472 4649 c81b 2c4a 551a 3a4a e67c 5c49
00000040: 424b c94a e7c2 ff48 1480 a74b 6218 b34b
00000050: 1d5c 2040 c960 d13f 64bd f03f

layers.0.0.weight f4 [200, 56]
0.03095091 -0.03652008 -0.2062503 -0.010649243 -0.1089345 -0.055704176 -0.14477684 0.06760121
0.0986858 -0.049466696 -0.02666802 -0.13309772 0.089161664 -0.098143734 -0.17251702 -0.099989705
0.030911148 0.10816112 -0.17593114 0.05143935 -0.13898872 0.026507959 -0.09617137 -0.09893212
-0.12549163 -0.12601426 -0.066996574 0.06694103 0.14514185 0.08651682 -0.015518631 -0.032125015
0.030675454 0.010935652 -0.15058798 -0.06608255 0.01871373 -0.13183084 -0.16152951 0.07366452
-0.025181768 -0.13807738 -0.013201121 0.07126971 -0.08699254 0.12032816 0.023402374 -0.13755798
-0.08725798 0.07380248 0.056424946 -0.024238398 0.08568355 0.04466199 0.07287831 0.0012216093
-0.06562008 -0.048709333 -0.08821215 -0.16502474 -0.16714607 -0.049147192 0.105601296 -0.005646964
-0.02932738 -0.041416265 0.1214301 0.08540577 -0.16773704 0.093247116 0.018425241 -0.02445894
0.12422237 0.0756903 0.16762972 -0.01972667 0.021850305 -0.01238422 0.14567468 -0.11894177
-0.14435555 0.017583577 0.019714432 0.06101478 0.013633032 -0.029768948 -0.12585965 -0.09448969
0.0015698042 -0.144386 0.009054411 0.086211555 -0.04024783 0.027733445 0.05304216 0.08972764
0.022128668 -0.0354904 -0.032553386 -0.068540506 0.061919566 0.018978061 -0.13382381 -0.12859759
-0.060864177 0.012508102 -0.013690613 0.027190583 0.055712815 0.005498879 -0.004968792 0.14088503
-0.06251913 0.1517338 -0.020735508 0.100911595 0.19276865 -0.032364763 -0.012548147 -0.10618192
-0.1230188 0.14775889 -0.028417274 0.07320214 -0.18634331 -0.0015745105 0.029956413 0.034523748
-0.06809302 -0.008730485 0.19535111 -0.25103056 -0.07587649 0.032372154 -0.02698668 -0.0045487285
0.12919876 -0.018584855 0.103898585 -0.07127095 -0.03030738 -0.07515391 -0.034864593 0.08036594
0.028521193 -0.1502468 0.08162614 -0.12922259 -0.05856279 0.09893732 0.102378055 0.096100785
0.037507184 0.026112093 -0.083308645 -0.09592895 -0.059343275 -0.11586481 0.107028134 0.049773097
0.015513258 0.0525145 0.078126326 -0.013483121 0.035913777 -0.1303773 0.09695619 0.09472437
0.15424077 0.014057348 -0.015457018 -0.05246598 -0.06329834 -0.09697092 -0.097325556 -0.0036050328
0.023826545 0.013846872 -0.14063309 -0.05161008 0.0943687 0.0018132093 0.016008241 0.047609545
-0.07389502 -0.08818732 -0.15529318 0.11112107 -0.022503817 0.014593578 -0.08112514 -0.13770738
-0.11277067 0.08221165 -0.14293943 -0.07224354 0.07907659 -0.0429493 -0.08135869 -0.10243673
0.036556236 0.14174804 0.06504172 0.10578258 -0.041971207 0.011488858 -0.105709486 -0.03078768
-0.05897506 0.07762706 -0.040425308 -0.10910815 0.08617251 0.0071401712 0.0064195343 0.07203575
-0.018043745 0.054071862 0.10777375 -0.031773787 0.108500175 0.06991509 0.041280244 -0.084833
0.16995895 0.008366048 0.0029709702 -0.10146906 -0.057147287 -0.007587174 -0.038577557 0.07702536
-0.09762581 -0.05698026 -0.06531684 0.082090385 0.10107031 -0.18313347 -0.116074264 -0.09439327
0.041903667 0.04907406 0.10532995 0.06896805 -0.09881836 0.019918306 -0.033757318 0.011021814
-0.0143822925 0.06913711 0.14889696 0.0948416 -0.09845074 0.06587891 -0.053022623 -0.048364703
00000000: c38c fd3c 1496 15bd 4733 53be 2a7a 2ebc
00000010: 0d19 dfbd 102a 64bd 6140 14be 8172 8a3d
00000020: c81b ca3d 979d 4abd e476 dabc c54a 08be
00000030: 649a b63d 95ff c8bd 4da8 30be 67c7 ccbd
00000040: 6039 fd3c 9483 dd3d 4b27 34be 11b2 523d
00000050: 0f53 0ebe 3827 d93c 7ff5 c4bd ec9c cabd
00000060: e180 00be e209 01be 8035 89bd 6118 893d
00000070: 11a0 143e bb2f b13d db41 7ebc 8595 03bd
00000080: 174b fb3c 732b 333c bc33 1abe 4a56 87bd
00000090: 894d 993c aafe 06be fe67 25be 6ddd 963d
000000a0: ff49 cebc 2864 0dbe 8449 58bc dbf5 913d
000000b0: 2529 b2bd 9c6e f63d 56b6 bf3c 00dc 0cbe
000000c0: 50b4 b2bd c125 973d d81d 673d 9b8f c6bc
000000d0: db7a af3d 7eef 363d 3941 953d 681e a03a
000000e0: d263 86bd 7083 47bd 92a8 b4bd 3ffc 28be
000000f0: 5728 2bbe 914e 49bd 7e45 d83d 2b0a b9bb
00000100: f93f f0bc 1aa4 29bd 58b0 f83d 38e9 ae3d
00000110: 42c3 2bbe 58f8 be3d 88f0 963c 1d5e c8bc
00000120: 4c68 fe3d 8403 9b3d 20a7 2b3e d399 a1bc
00000130: 69ff b23c 2fe7 4abc be2b 153e be97 f3bd
00000140: f1d1 13be 6f0b 903c 2980 a13c a2ea 793d
00000150: 155d 5f3c 02de f3bc 5ae1 00be d083 c1bd
00000160: e3c1 cd3a ecd9 13be f458 143c af8f b03d
00000170: e9da 24bd 4031 e33c bc42 593d 20c3 b73d
00000180: 2e47 b53c 625e 11bd b356 05bd f75e 8cbd
00000190: 5f9f 7d3d e177 9b3c 1c09 09be 16af 03be
000001a0: b74c 79bd c8ee 4c3c 984e 60bc c9be de3c
000001b0: 1f33 643d f12f b43b 40d1 a2bb 2a44 103e
000001c0: 080a 80bd 1b60 1b3e 83dd a9bc bdaa ce3d
000001d0: 2565 453e ea90 04bd be96 4dbc e875 d9bd
000001e0: 48f1 fbbd 1b4e 173e 58cb e8bc 01eb 953d
000001f0: c8d0 3ebe ce5f ceba 2767 f53c c668 0d3d
00000200: 5a74 8bbd 4f0a 0fbc 1f0a 483e 1487 80be
00000210: 2265 9bbd aa98 043d 2c13 ddbc 800d 95bb
00000220: ae4c 043e 443f 98bc c8c8 d43d 81f6 91bd
00000230: 2f47 f8bc 4bea 99bd 2dce 0ebd e696 a43d
00000240: 47a5 e93c 4cda 19be 9b2b a73d ed52 04be
00000250: 89df 6fbd a69f ca3d 96ab d13d 7dd0 c43d
00000260: 22a1 193d 07e9 d53c b99d aabd 6676 c4bd
00000270: ef11 73bd 884a edbd 9131 db3d e0de 4b3d
00000280: 522b 7e3c 7219 573d b200 a03d 4fe8 5cbc
00000290: 531a 133d a081 05be f890 c63d dafe c13d
000002a0: 4bf1 1d3e ca50 663c 6f3f 7dbc 91e6 56bd
000002b0: 8fa2 81bd b198 c6bd 9f52 c7bd 6a42 6cbb
000002c0: e32f c33c fedd 623c 1f02 10be 1765 53bd
000002d0: 6144 c13d 35a9 ed3a b723 833c 3a02 433d
000002e0: 4656 97bd 8e9b b4bd 2d05 1fbe 7293 e33d
000002f0: ed59 b8bc e719 6f3c f024 a6bd 2a03 0dbe
00000300: 4ff4 e6bd 955e a83d b75e 12be 6cf4 93bd
00000310: e8f2 a13d 9beb 2fbd 639f a6bd 59ca d1bd
00000320: febb 153d 6626 113e 9834 853d 8aa4 d83d
00000330: 00ea 2bbd c33b 3c3c 377e d8bd 7236 fcbc
00000340: d58f 71bd f0fa 9e3d 0295 25bd 1874 dfbd
00000350: 377b b03d 19f8 e93b f55a d23b 7b87 933d
00000360: 7ad0 93bc 757a 5d3d 7cb8 dc3d 3b25 02bd
00000370: 5735 de3d a52f 8f3d 7915 293d edbc adbd
00000380: b809 2e3e c011 093c 9cb4 423b 03cf cfbd
00000390: 4613 6abd d49d f8bb 8003 1ebd 79bf 9d3d
000003a0: 0af0 c7bd 2264 69bd d6c4 85bd 011f a83d
000003b0: f3fd ce3d 5787 3bbe 58b8 edbd 4251 c1bd
000003c0: 2ea3 2b3d e201 493d 3bb7 d73d 1f3f 8d3d
000003d0: 4861 cabd b72b a33c 1d45 0abd d794 343c
000003e0: b5a3 6bbc c297 8d3d 7278 183e 503c c23d
000003f0: 8ba0 c9bd 86eb 863d 402e 59bd 111a 46bd

layers.0.2.weight f4 [200]
1.0152805 1.0120313 1.0188524 1.0067428 0.9869073 0.9972918 0.9760606 1.0254606
0.9829466 0.9860753 0.98882896 1.0023916 0.99338853 0.99220884 1.0056629 0.98873544
1.0014036 1.0135802 1.0038635 0.988018 1.0230491 1.0141821 1.000138 0.98373437
0.996833 1.0035063 0.9914629 1.0132742 1.0094699 0.9929884 0.987711 1.0244873
0.9672698 0.9961591 0.9894512 1.0217303 1.0053897 1.0210216 1.0050867 1.0112925
1.0107087 1.0265626 1.0032362 0.9696305 1.0047468 1.0308443 0.9900869 1.022197
1.0090739 0.98030204 0.9761695 1.0169059 1.0171095 1.0099301 0.94793344 0.99556345
1.0158066 1.0204475 0.9558885 0.97687286 0.9851532 0.9841623 1.0171235 0.9929552
1.0196936 0.9761689 0.99447274 1.0060046 0.98410946 1.0111881 0.9999255 0.9844525
0.96356595 0.9999452 1.0158932 0.98104316 1.0104063 0.97926635 1.0005337 0.9965223
0.99974036 1.0129763 1.0166616 0.97322637 1.0119 1.0058606 0.96165633 0.9876088
0.9803869 1.0155337 0.98597604 0.9719853 1.022209 0.98534113 0.99727976 0.9963869
0.98864806 0.9932295 1.0110128 0.9667546 1.0093267 0.9866121 0.9970147 1.0124109
0.98904556 0.9980501 1.0049436 1.0122074 0.9949341 0.9695072 1.0245875 1.00375
0.9874887 1.0152822 0.9890777 0.9833192 0.97826934 0.99928224 0.9880809 1.0176913
1.0064564 1.0130752 1.0417455 1.019005 0.9842211 0.99624276 1.0206875 1.0230294
1.0053616 0.9518423 0.9877896 0.9849641 1.0041578 1.0032306 0.9915903 1.0261372
1.013586 1.0117953 0.99574465 1.0151625 1.007842 0.9972456 0.9870002 1.0214173
1.0029347 1.0267686 1.0155221 0.97030884 0.99314666 1.0066597 1.0036055 1.0086666
0.94155705 0.98287624 0.99662703 1.0028142 0.9916785 0.99072737 0.9991342 1.0080922
1.0003486 1.0222752 0.9879735 0.9958126 1.0050514 1.0101495 1.0138823 1.0193933
1.0202256 0.9669307 0.97750443 0.9897558 1.005447 1.0000284 0.9880649 0.97481716
1.0202295 1.0064145 1.0007573 0.99043417 1.0174348 0.97632396 1.0269227 0.98770905
1.0238028 1.0251621 1.0007538 1.0046742 0.99113613 0.98183763 0.9812384 0.9843064
1.0146611 0.9851455 0.97894317 1.0117348 1.0074149 1.0190771 1.0009178 1.0085065
00000000: b6f4 813f 3e8a 813f c169 823f f3dc 803f
00000010: f5a5 7c3f 844e 7f3f 1cdf 793f 4b42 833f
00000020: 63a2 7b3f 6e6f 7c3f e523 7d3f 5e4e 803f
00000030: b64e 7e3f 6601 7e3f 90b9 803f c41d 7d3f
00000040: fe2d 803f ffbc 813f 997e 803f bfee 7c3f
00000050: 46f3 823f b8d0 813f 8604 803f 04d6 7b3f
00000060: 7330 7f3f e572 803f 83d0 7d3f f8b2 813f
00000070: 4f36 813f 7d34 7e3f a1da 7c3f 6622 833f
00000080: fe9e 773f 4804 7f3f ad4c 7d3f 0fc8 823f
00000090: 9cb0 803f d6b0 823f aea6 803f 0872 813f
000000a0: e75e 813f 6766 833f 0b6a 803f b439 783f
000000b0: 8b9b 803f b5f2 833f 5676 7d3f 5ad7 823f
000000c0: 5529 813f 13f5 7a3f 3fe6 793f f929 823f
000000d0: a530 823f 6445 813f c4ab 723f 3fdd 7e3f
000000e0: f305 823f 069e 823f 1cb5 743f 5714 7a3f
000000f0: 0033 7c3f 0ff2 7b3f 1a31 823f 5032 7e3f
00000100: 5285 823f 34e6 793f c495 7e3f c2c4 803f
00000110: 99ee 7b3f 9d6e 813f 1efb 7f3f 1405 7c3f
00000120: 42ac 763f 69fc 7f3f ca08 823f a525 7b3f
00000130: fe54 813f 33b1 7a3f 7d11 803f 161c 7f3f
00000140: fcee 7f3f 35a9 813f f821 823f 5d25 793f
00000150: f085 813f 0ac0 803f 1c2f 763f eed3 7c3f
00000160: a3fa 7a3f 02fd 813f ed68 7c3f 07d4 783f
00000170: bfd7 823f 513f 7c3f ba4d 7f3f 3613 7f3f
00000180: 0a18 7d3f 4a44 7e3f de68 813f 3b7d 773f
00000190: 9e31 813f 9c92 7c3f 5b3c 7f3f ae96 813f
000001a0: 1732 7d3f 3680 7f3f fea1 803f 0390 813f
000001b0: 00b4 7e3f a031 783f af25 833f e17a 803f
000001c0: 0fcc 7c3f c4f4 813f 3234 7d3f cfba 7b3f
000001d0: dc6f 7a3f f6d0 7f3f dff2 7c3f b543 823f
000001e0: 90d3 803f 73ac 813f eb57 853f c16e 823f
000001f0: eaf5 7b3f c409 7f3f e3a5 823f a1f2 823f
00000200: b0af 803f f0ab 733f c7df 7c3f 9b26 7c3f
00000210: 3e88 803f dc69 803f ddd8 7d3f 7758 833f
00000220: 30bd 813f 8282 813f 1fe9 7e3f d8f0 813f
00000230: f700 813f 7d4b 7f3f 0cac 7c3f cdbd 823f
00000240: 2a60 803f 276d 833f a1fc 813f 2966 783f
00000250: dc3e 7e3f 3ada 803f 2576 803f fd1b 813f
00000260: e209 713f c79d 7b3f f322 7f3f 375c 803f
00000270: a4de 7d3f 4fa0 7d3f 42c7 7f3f 2a09 813f
00000280: 6c0b 803f ead9 823f d5eb 7c3f 93ed 7e3f
00000290: 86a5 803f 944c 813f e5c6 813f 7b7b 823f
000002a0: c196 823f c588 773f bb3d 7a3f a360 7d3f
000002b0: 7db2 803f ee00 803f d2f1 7c3f 9e8d 793f
000002c0: e196 823f 31d2 803f d118 803f 188d 7d3f
000002d0: 4e3b 823f 5ef0 793f 3472 833f 80da 7c3f
000002e0: f80b 833f 8338 833f b318 803f 2a99 803f
000002f0: 19bb 7d3f b659 7b3f 7132 7b3f 81fb 7b3f
00000300: 6ae0 813f 7f32 7c3f 059c 7a3f 8780 813f
00000310: f9f2 803f 1e71 823f 131e 803f be16 813f

layers.0.2.bias f4 [200]
-0.044810127 0.0049581365 0.024183102 -0.011111309 0.006295822 0.01813908 0.0034050704 -0.014801309
-0.008340334 0.016268278 -0.06069907 0.015991138 -0.012839201 0.009538754 -0.020709228 -0.007702965
-0.01910428 0.013071192 -0.056637775 0.020168757 0.019977182 0.0056696422 0.0045608766 -0.04559218
0.030580433 0.061816253 0.024271458 -0.012887582 0.010231476 0.007240917 -0.0233328 0.002752019
-0.01718841 0.048067097 0.017671593 0.04058478 -0.0038501814 -0.043424077 0.043122876 0.015141879
0.0050512254 0.0040960326 -0.015141003 -0.02519751 -0.011658492 -0.013386132 -0.02812131 0.043479484
0.005284323 0.033220235 0.03655522 -0.009698487 0.01089355 -0.016515778 -0.009902749 -0.012451477
0.022870159 -0.011278112 -0.030887157 0.022506407 -0.020854771 0.020031467 0.045196164 0.005670394
0.023069374 0.022941958 -0.010664862 -0.001706288 0.0703744 -0.020812038 -0.0058952263 0.027571557
-0.0046206084 -0.038083855 0.052156616 -0.011200094 -0.027177766 0.04018391 0.0009212914 0.010479796
-0.0076619443 -0.016355695 -0.028796539 0.024016565 0.002083123 -0.03553174 -0.019197715 0.054252934
0.027188553 -0.005353973 0.0064430167 0.040510774 -0.0031512915 -0.012392934 0.014780227 0.009235548
-0.017343447 0.018847322 0.01951783 0.03156292 0.048779707 -0.01843023 3.835052e-05 0.019208342
0.015424631 -0.0035416067 0.03497634 -0.013103832 -0.014330273 -0.030606216 -0.00631824 -0.013546772
0.035618722 -0.020626727 -0.0059969006 -0.009147091 0.010742988 -0.00526335 0.035638615 -0.034724537
0.061364293 -0.023761852 0.06466569 -0.05953156 0.0129301725 0.004855331 -0.0052033733 -0.024512237
-0.007499358 5.4314765e-05 0.024686174 0.004928815 0.0087812375 0.012582573 0.007952913 -0.002396927
-0.0052329213 -0.015648874 -0.023223316 0.0012802411 0.0351245 0.010821406 0.00016670485 0.01409661
0.041623842 -0.03844119 -0.014038863 0.008645623 -0.0019478407 -0.023898302 0.007315998 -0.008382404
-0.040522855 0.04039317 0.020975154 0.038284544 0.0041427007 0.03949717 -0.018051596 0.03457213
-0.016326156 -0.016130263 -0.02248332 0.011087502 0.055131543 -0.008246349 0.008863208 -0.008813332
0.001979239 0.017422883 0.025937192 -0.020374227 0.01958839 -0.024466148 0.020810975 -0.03183366
-0.011267963 0.011187607 0.032814715 0.0030207834 -0.01351883 0.0067097377 0.01420219 -3.0190078e-05
0.025964031 0.054339908 -9.073896e-05 0.010967116 -0.02891641 -0.01768961 -0.00823699 0.018848615
-0.0070465333 0.014815375 0.056195952 0.022225415 -0.012825755 -0.009695389 0.0062311855 -0.018306509
00000000: d38a 37bd dd77 a23b a41b c63c 350c 36bc
00000010: 2f4d ce3b 6898 943c 9a27 5f3b 3181 72bc
00000020: e5a5 08bc 0d45 853c 979f 78bd d9ff 823c
00000030: 835b 52bc 6f48 1c3c 66a6 a9bc 2769 fcbb
00000040: 9480 9cbc 8e28 563c 03fd 67bd f338 a53c
00000050: 30a7 a33c 68c8 b93b 6873 953b debe 3abd
00000060: d183 fa3c 0a33 7d3d f0d4 c63c 7026 53bc
00000070: eca1 273c 3745 ed3b 6e24 bfbc 385b 343b
00000080: b5ce 8cbc 01e2 443d 04c4 903c 3a3c 263d
00000090: 5353 7cbb 72dd 31bd 9da1 303d a515 783c
000000a0: c084 a53b 0338 863b f811 78bc 026b cebc
000000b0: 4203 3fbc 8251 5bbc a95e e6bc 8b17 323d
000000c0: 1d28 ad3b f111 083d edba 153d 67e6 1ebc
000000d0: dc7a 323c 194c 87bc 243f 22bc 4801 4cbc
000000e0: 335a bb3c d5c7 38bc 1007 fdbc 5b5f b83c
000000f0: a0d7 aabc 0819 a43c 9d1f 393d b6ce b93b
00000100: fcfb bc3c c6f0 bb3c acbb 2ebc 86a5 dfba
00000110: 7420 903d 027e aabc be2c c1bb bfdd e13c
00000120: 7968 97bb d1fd 1bbd 2da2 553d 9980 37bc
00000130: e8a3 debc e297 243d d282 713a 73b3 2b3c
00000140: 0c11 fbbb 61fc 85bc b8e6 ebbc 63be c43c
00000150: 0185 083b bb89 11bd 8744 9dbc 5338 5e3d
00000160: 87ba de3c 6170 afbb f11f d33b a0ee 253d
00000170: e685 4ebb bc0b 4bbc c428 723c b250 173c
00000180: d813 8ebc b365 9a3c dbe3 9f3c 1f48 013d
00000190: 3bcd 473d fefa 96bc 8fda 2038 d05a 9d3c
000001a0: 97b7 7c3c 4d1a 68bb 5a43 0f3d 74b1 56bc
000001b0: 85c9 6abc e3b9 fabc 3d09 cfbb 48f3 5dbc
000001c0: f0e4 113d 62f9 a8bc a681 c4bb aedd 15bc
000001d0: 5c03 303c 2e78 acbb ccf9 113d 513b 0ebd
000001e0: 2059 7b3d 37a8 c2bc 726f 843d 5dd7 73bd
000001f0: 13d9 533c 7819 9f3b 0f81 aabb e3cd c8bc
00000200: 2dbd f5bb 09d0 6338 a93a ca3c e681 a13b
00000210: 2edf 0f3c 2327 4e3c ef4c 023c c315 1dbb
00000220: ed78 abbb 1132 80bc d33e bebc c3cd a73a
00000230: b5de 0f3d 444c 313c 7ecd 2e39 78f5 663c
00000240: c37d 2a3d 8274 1dbd 4203 66bc 5fa6 0d3c
00000250: b04e ffba 5fc6 c3bc 0abb ef3b 5a56 09bc
00000260: 4bfb 25bd 4f73 253d 16d4 ab3c 41d0 1c3d
00000270: 7ebf 873b c9c7 213d f1e0 93bc 819b 0d3d
00000280: 6ebe 85bc 9d23 84bc f12e b8bc 5ba8 353c
00000290: 9dd1 613d b21b 07bc fd36 113c cb65 10bc
000002a0: 1fb6 013b 6fba 8e3c 3c7a d43c dae7 a6bc
000002b0: d577 a03c 3b6d c8bc c77b aa3c 0364 02bd
000002c0: 439d 38bc 3a4c 373c b968 063d 56f8 453b
000002d0: 157e 5dbc 5cdd db3b 4db0 683c b340 fdb7
000002e0: 85b2 d43c 8693 5e3d 1c4b beb8 6baf 333c
000002f0: 1be2 ecbc cde9 90bc 71f4 06bc 6968 9a3c
00000300: 9be6 e6bb 30bc 723c ba2d 663d 1312 b63c
00000310: 1e23 52bc 69d9 1ebc f92e cc3b 88f7 95bc

layers.0.2.running_mean f4 [200]
0.10785196 0.10170531 0.12058938 0.12024172 0.10186329 0.095541485 0.0892165 0.14488631
0.1305605 0.081091434 0.108209394 0.1287729 0.16393197 0.1317794 0.11678875 0.13328795
0.10936735 0.15846358 0.17520349 0.15688571 0.13505045 0.12953866 0.15770315 0.079549566
0.12891728 0.10972757 0.14040464 0.10276876 0.13028698 0.108642906 0.11199441 0.16414173
0.10786595 0.12713815 0.14711758 0.11498248 0.10779019 0.1021139 0.10381394 0.12555587
0.12130259 0.11111485 0.1322389 0.09796629 0.12599951 0.10815605 0.18135199 0.12105852
0.10316622 0.14626962 0.14921746 0.09585111 0.16170868 0.091221035 0.0991636 0.14325815
0.14017864 0.10948697 0.15577686 0.105505764 0.121006675 0.08123419 0.16516271 0.09932917
0.12367391 0.16551511 0.10750743 0.1385586 0.10757282 0.21700853 0.12359824 0.15532073
0.117472045 0.10732114 0.12487306 0.13341787 0.16982824 0.12939927 0.084947035 0.12503426
0.18374397 0.10422365 0.112884425 0.1537237 0.13086355 0.07120305 0.11674389 0.15336058
0.110910065 0.1150461 0.11849774 0.13376099 0.14364712 0.13180366 0.08738185 0.08787708
0.11708611 0.14042239 0.08098582 0.08598587 0.10810867 0.12532783 0.068739764 0.084026545
0.09924312 0.07941265 0.10015954 0.1216451 0.17872405 0.07195332 0.09868051 0.11634669
0.13455833 0.10650294 0.107090205 0.13870227 0.1235769 0.098937586 0.12394802 0.16973194
0.11023908 0.112846844 0.13529775 0.11074366 0.13919622 0.13609098 0.12838371 0.083479166
0.11582022 0.13463017 0.096614 0.13883922 0.11448358 0.13383555 0.12375957 0.09423215
0.15338227 0.09448474 0.12105306 0.08195481 0.12835139 0.1172214 0.12956442 0.097640894
0.24506173 0.15577364 0.1075201 0.20320374 0.16691847 0.09376091 0.10737264 0.12834604
0.11280475 0.11176523 0.14415886 0.12737323 0.11520108 0.14681281 0.12165659 0.12604779
0.18142156 0.13861406 0.19925138 0.08631983 0.16204812 0.09960625 0.13063999 0.09565764
0.13344015 0.14659746 0.09743298 0.16834879 0.10390246 0.11324241 0.12331952 0.09614892
0.14937325 0.10518573 0.11654882 0.10140853 0.1916528 0.14602667 0.12830733 0.14305913
0.13867958 0.09772665 0.12849063 0.10235108 0.11315031 0.09537993 0.18039389 0.12532352
0.1443312 0.17715818 0.118302844 0.17087503 0.11247961 0.13067585 0.12131795 0.09046738
00000000: 7de1 dc3d e04a d03d 91f7 f63d 4a41 f63d
00000010: b39d d03d 41ab c33d 24b7 b63d 145d 143e
00000020: a7b1 053e 4413 a63d e39c dd3d 0bdd 033e
00000030: c8dd 273e 2ef1 063e f12e ef3d a37c 083e
00000040: fdfb df3d 4744 223e 8b68 333e a6a6 203e
00000050: aa4a 0a3e c8a5 043e ef7c 213e e2ea a23d
00000060: e402 043e d9b8 e03d 3cc6 0f3e 6d78 d23d
00000070: f369 053e 2c80 de3d 535d e53d c514 283e
00000080: d3e8 dc3d 8130 023e fea5 163e ef7b eb3d
00000090: 1ac1 dc3d 1821 d13d 679c d43d b891 003e
000000a0: 7e6d f83d 2f90 e33d a269 073e 8da2 c83d
000000b0: 0406 013e eb80 dd3d 56b4 393e 88ed f73d
000000c0: d048 d33d b4c7 153e 76cc 183e 964d c43d
000000d0: f696 253e 18d2 ba3d 4916 cb3d 44b2 123e
000000e0: fd8a 0f3e b43a e03d f883 1f3e 6813 d83d
000000f0: 59d2 f73d 1c5e a63d 6a20 293e 186d cb3d
00000100: bf48 fd3d cb7c 293e db2c dc3d 4ee2 0d3e
00000110: 234f dc3d 7c37 5e3e 1321 fd3d 660c 1f3e
00000120: 2f95 f03d 30cb db3d 72bd ff3d b29e 083e
00000130: 74e7 2d3e 3e81 043e b6f8 ad3d fb08 003e
00000140: 6127 3c3e 3673 d53d f32f e73d bf69 1d3e
00000150: 1801 063e e8d2 913d 6c17 ef3d 8e0a 1d3e
00000160: d124 e33d 4a9d eb3d f1ae f23d a4f8 083e
00000170: 3b18 133e 8af7 063e 41f5 b23d e6f8 b33d
00000180: d8ca ef3d e3ca 0f3e e5db a53d 5c19 b03d
00000190: 1468 dd3d f055 003e 6fc7 8c3d 1c16 ac3d
000001a0: fa3f cb3d 19a3 a23d 7220 cd3d 1121 f93d
000001b0: 7003 373e 435c 933d 0219 ca3d 2c47 ee3d
000001c0: a9c9 093e 371e da3d 1c52 db3d f807 0e3e
000001d0: e315 fd3d ca9f ca3d 76d8 fd3d 36ce 2d3e
000001e0: 07c5 e13d 3f1c e73d 7e8b 0a3e 92cd e23d
000001f0: 7489 0e3e 6f5b 0b3e 0577 033e 20f7 aa3d
00000200: 2733 ed3d 7edc 093e 90dd c53d de2b 0e3e
00000210: 5e76 ea3d 300c 093e a875 fd3d c9fc c03d
00000220: 3e10 1d3e 3781 c13d abea f73d ecd7 a73d
00000230: 8c6e 033e c611 f03d 89ac 043e f3f7 c73d
00000240: 76f1 7a3e 2083 1f3e 8033 dc3d a414 503e
00000250: adec 2a3e b805 c03d 30e6 db3d 256d 033e
00000260: 2d06 e73d 2be5 e43d 619e 133e 216e 023e
00000270: 8bee eb3d 1956 163e 1727 f93d ac12 013e
00000280: 93c6 393e d8f0 0d3e 8e08 4c3e 73c8 b03d
00000290: f1ef 253e 5dfe cb3d 7dc6 053e 27e8 c33d
000002a0: 89a4 083e a51d 163e f18a c73d a063 2c3e
000002b0: d0ca d43d a3eb e73d f28e fc3d bae9 c43d
000002c0: 4df5 183e 9e6b d73d 26b1 ee3d 46af cf3d
000002d0: a240 443e 0488 153e ff62 033e 187e 123e
000002e0: 0502 0e3e e924 c83d 0c93 033e 719d d13d
000002f0: 5abb e73d 8e56 c33d 2db9 383e cf54 003e
00000300: 8fcb 133e f468 353e c348 f23d ddf9 2e3e
00000310: b65b e63d e4cf 053e 8c75 f83d f646 b93d

layers.0.2.running_var f4 [200]
0.024997897 0.034781538 0.035830893 0.07551024 0.03262448 0.048267823 0.02561194 0.15424271
0.072725795 0.015867963 0.04176993 0.039037395 0.03369018 0.07836161 0.1017945 0.070310086
0.055386607 0.019892529 0.030749682 0.11536841 0.036804277 0.068511315 0.10565375 0.020878676
0.14084211 0.022256194 0.025977852 0.02954807 0.05294828 0.02163389 0.035155617 0.15294316
0.02906693 0.019271275 0.14005016 0.036227528 0.024694094 0.022768496 0.03128536 0.07501749
0.03283611 0.030840205 0.0817393 0.019606462 0.04956153 0.043294523 0.14024246 0.036538515
0.011499338 0.18371367 0.04699909 0.030241292 0.023065876 0.033654645 0.0730813 0.019530281
0.0740912 0.1210658 0.03432975 0.062109783 0.05558461 0.02596474 0.1069196 0.031496525
0.037567977 0.19470261 0.056944404 0.08864488 0.048374925 0.03440717 0.033388015 0.12480601
0.065363474 0.039951455 0.048880924 0.07702385 0.2044543 0.11937662 0.010342552 0.11460451
0.21815942 0.05998384 0.023924412 0.053918958 0.11712134 0.032521013 0.03864781 0.12716293
0.055342734 0.09362082 0.043817997 0.054524165 0.07200567 0.12658978 0.028505312 0.02615463
0.06338872 0.09816755 0.03173589 0.022133427 0.038547434 0.0675759 0.02859254 0.061201476
0.029504102 0.014547606 0.021293227 0.04722853 0.18962336 0.031985894 0.05621071 0.028366147
0.17819902 0.021499597 0.06646553 0.074962914 0.10260988 0.02348592 0.07876666 0.031615794
0.042035077 0.039523862 0.05749079 0.017195933 0.123371735 0.116968766 0.031366147 0.037119575
0.059452407 0.111948065 0.0488814 0.02013738 0.0321428 0.09781423 0.06621953 0.016239824
0.111552514 0.014408837 0.0438327 0.017464034 0.063441604 0.023323104 0.067321494 0.028726967
0.05158101 0.16647679 0.018044781 0.033123225 0.12561171 0.027353087 0.0622887 0.07872632
0.026692973 0.023191158 0.021706438 0.09631622 0.050076008 0.029672096 0.097536884 0.08366472
0.19731556 0.033381708 0.037351515 0.023970574 0.22503692 0.014323997 0.015166012 0.03408729
0.03755701 0.026476048 0.026666958 0.21042228 0.05436165 0.034392223 0.025085332 0.039132945
0.089911565 0.030346803 0.09184447 0.024087263 0.028119156 0.16091153 0.02149642 0.0246888
0.024155134 0.051289033 0.100500025 0.026387835 0.041448195 0.0459544 0.0318261 0.07874714
0.033974934 0.040788073 0.06397025 0.038379233 0.05445841 0.042887926 0.050938856 0.0545014
00000000: 64c8 cc3c 1677 0e3d 6ac3 123d 1da5 9a3d
00000010: 3fa1 053d 7bb4 453d 22d0 d13c cdf1 1d3e
00000020: 43f1 943d 88fd 813c f216 2b3d ade5 1f3d
00000030: b7fe 093d 0d7c a03d a379 d03d bcfe 8f3d
00000040: 11dd 623d a8f5 a23c c2e6 fb3c 4646 ec3d
00000050: 15c0 163d a94f 8c3d fe60 d83d c209 ab3c
00000060: ea38 103e 9f52 b63c 81cf d43c cb0e f23c
00000070: 4ce0 583d 8e39 b13c 56ff 0f3d 229d 1c3e
00000080: c51d ee3c cbde 9d3c 4f69 0f3e 5163 143d
00000090: 454b ca3c ff84 ba3c 1425 003d c5a2 993d
000000a0: 287f 063d 99a4 fc3c ef66 a73d bb9d a03c
000000b0: 0801 4b3d 9955 313d b89b 0f3e 69a9 153d
000000c0: b867 3c3c 701f 3c3e 1e82 403d 96bc f73c
000000d0: a6f4 bc3c 74d9 093d a6ab 953d f8fd 9f3c
000000e0: 21bd 973d 59f1 f73d 5a9d 0c3d d466 7e3d
000000f0: b0ac 633d 02b4 d43c aaf8 da3d 8002 013d
00000100: e1e0 193d 1f60 473e 893e 693d 728b b53d
00000110: c924 463d 88ee 0c3d dfc1 083d 4b9a ff3d
00000120: 49dd 853d 23a4 233d 5d37 483d aebe 9d3d
00000130: 785c 513e bb7b f43d cf73 293c c5b5 ea3d
00000140: 2f65 5f3e 9db1 753d 21fd c33c 20da 5c3d
00000150: 50dd ef3d c134 053d 2b4d 1e3d 0037 023e
00000160: 10af 623d 46bc bf3d 807a 333d bb54 5f3d
00000170: b577 933d c0a0 013e f983 e93c 3c42 d63c
00000180: f2d1 813d 120c c93d 7efd 013d 2951 b53c
00000190: eae3 1d3d 3c65 8a3d e73a ea3c 66ae 7a3d
000001a0: 96b2 f13c 1559 6e3c 226f ae3c b472 413d
000001b0: a02c 423e a403 033d 343d 663d 1f60 e83c
000001c0: ce79 363e ec1f b03c 141f 883d 2886 993d
000001d0: 2125 d23d 8b65 c03c 6a50 a13d 907f 013d
000001e0: f92c 2c3d c6e3 213d 767b 6b3d 7cde 8c3c
000001f0: 52aa fc3d 528d ef3d ca79 003d b20a 183d
00000200: 5e84 733d 0745 e53d dd37 483d 26f7 a43c
00000210: 2ba8 033d d452 c83d 1b9e 873d 6109 853c
00000220: a575 e43d 0b13 6c3c eb89 333d bc10 8f3c
00000230: aced 813d 1810 bf3c dadf 893d d154 eb3c
00000240: 9c46 533d e478 2a3e a6d2 933c 38ac 073d
00000250: 5ba0 003e 9513 e03c 7022 7f3d 443b a13d
00000260: 39ab da3c 62fb bd3c b3d1 b13c 7041 c53d
00000270: 801c 4d3d e512 f33c 6bc1 c73d 6958 ab3d
00000280: 170d 4a3e 42bb 083d e7fd 183d f05d c43c
00000290: 1470 663e 33af 6a3c dd7a 783c 1d9f 0b3d
000002a0: 61d5 193d 4ce4 d83c aa74 da3c f078 573e
000002b0: 52aa 5e3d dcde 0c3d c17f cd3c de49 203d
000002c0: 8e23 b83d dc99 f83c f418 bc3d a752 c53c
000002d0: 255a e63c fec5 243e 4319 b03c 2b40 ca3c
000002e0: fde0 c53c 7314 523d f5d2 cd3d 4d2b d83c
000002f0: 95c5 293d ae3a 3c3d 165c 023d 2e46 a13d
00000300: 4d29 0b3d 6511 273d d602 833d 8b33 1d3d
00000310: c80f 5f3d 40ab 2f3d 43a5 503d dc3c 5f3d

layers.1.0.weight f4 [100, 200]
0.073568046 -0.020589946 -0.0019349509 0.06399189 0.01697841 -0.05303152 -0.069286376 0.010782049
-0.04108703 -0.05454472 0.064853065 -0.03501932 -0.07511952 -0.012459698 0.077288434 -0.04553008
0.06204243 -0.03601992 -0.0038291062 0.047551345 0.015643716 -0.024424091 -0.073368505 -0.062180668
0.02008445 0.018853376 0.010463537 0.028647037 0.051127687 -0.007998261 0.057076503 0.030757494
0.028844098 0.020461705 -0.020306017 -0.010055281 0.036364272 -0.002676329 0.01634783 -0.012793135
0.07343754 -0.0014532201 0.038239233 -0.029256701 -0.060864255 0.014622894 -0.017623076 0.024262384
-0.08736224 -0.06944831 -0.017575573 0.03853953 0.025711628 -0.028712953 -0.0016336518 -0.007415474
0.041816965 -0.0060290108 0.059028346 -0.061809722 0.0061009587 0.06345179 0.010748769 -0.06770899
0.07002998 0.028139144 0.042826932 0.0101586655 0.076909885 0.061805476 -0.026772304 0.013684743
-0.011499549 0.06316445 0.008795026 0.065631166 0.017546244 -0.01328626 -0.05733397 -0.02416456
0.043058842 0.0057727587 0.0702291 -0.039306924 0.0120660355 0.019166155 0.066522665 0.05351337
0.006960911 0.07594982 -0.043621983 0.05240733 -0.04599695 0.03552757 0.07183511 0.038868207
-0.0309054 0.025065465 0.03814 0.017609598 -0.08087201 -0.035443258 0.0009302948 -0.02118419
-0.017119993 0.03389231 -0.085631564 -0.038171083 -0.051454093 -0.048589576 0.009480378 -0.06356705
0.056296837 0.026283316 -0.05322681 -0.02051953 0.038755633 -0.03475279 0.0009126649 -0.041200057
0.04253792 0.04305609 -0.08148454 0.005094706 0.023778027 -0.02635376 0.04632934 -0.042720813
-0.0043125106 -0.01243668 0.05320168 0.04659689 -0.035282448 -0.06935607 -0.062235482 -0.053447377
6.466349e-05 0.021095416 0.03566431 0.04381429 0.044895437 0.03964546 0.05018154 -0.047854282
-0.00015897943 0.02772774 0.0038573819 0.037897993 0.016625945 0.02515745 -0.02849275 -0.0043111877
-0.022614261 -0.09491266 -0.042650778 -0.0074749026 0.009488712 -0.039869145 -0.06495042 -0.06764389
-0.015941788 -0.041008987 0.046445046 -0.024039509 0.008378701 -0.041636758 -0.10469325 0.020566478
-0.08080211 -0.08641729 -0.0522061 0.014849186 0.029825786 0.06574199 -0.032884218 -0.067674026
-0.049214374 -0.014498217 0.058284663 0.04037307 -0.03345613 -0.029184042 -0.065438986 0.06573025
-0.028812094 -0.08794165 -0.010575599 0.0050600586 0.07104036 0.05651094 0.0053520054 0.0031736842
0.0060076006 0.008683776 -0.050163977 0.02948539 -0.05567191 0.049946573 0.015323059 0.020608282
-0.021576902 0.01557621 0.004394693 -0.00990898 -0.05841436 -0.044555943 -0.036378447 -0.027909962
-0.03591672 -0.09347081 0.0206878 -0.024479043 -0.07387198 -0.03167684 0.06325462 -0.024908716
0.03203281 -0.05001079 -0.08164506 0.006447599 0.060390648 -0.062187385 -0.06370091 -0.07033187
-0.06670148 0.00014860618 -0.020766923 0.031674597 0.05049007 0.02135287 -0.017581487 -0.06914648
0.005901199 -0.058585107 0.05349457 -0.07209664 -0.03034703 0.010095044 -0.059833292 -0.060461022
0.072964795 -0.004896759 0.067251354 0.057369143 0.019359563 0.034949154 -0.039427325 -0.015767911
0.003117985 -0.0046573533 0.054224975 -0.0046728565 0.035999138 0.053291757 -0.005599349 0.10658633
00000000: d8aa 963d 3fac a8bc 2e9e fdba 2e0e 833d
00000010: 4e16 8b3c 9437 59bd 04e6 8dbd 31a7 303c
00000020: e04a 28bd 496a 5fbd afd1 843d 6b70 0fbd
00000030: 43d8 99bd c323 4cbc 6649 9e3d c07d 3abd
00000040: 3420 7e3d a089 13bd bef1 7abb 33c5 423d
00000050: 4027 803c 0815 c8bc 3a42 96bd 28b1 7ebd
00000060: 2588 a43c 6572 9a3c 416f 2b3c 31ad ea3c
00000070: 446b 513d 230b 03bc 0dc9 693d 24f7 fb3c
00000080: 754a ec3c 4e9f a73c ce58 a6bc e8be 24bc
00000090: b4f2 143d 5a65 2fbb e2eb 853c 4c9a 51bc
000000a0: 6c66 963d fa79 beba bea0 1c3d c0ab efbc
000000b0: cc4c 79bd dd94 6f3c 455e 90bc e8c1 c63c
000000c0: f9ea b2bd ea3a 8ebd a6fa 8fbc a0db 1d3d
000000d0: 31a1 d23c 6d37 ebbc 4220 d6ba 81fd f2bb
000000e0: 4448 2b3d 028f c5bb b5c7 713d 312c 7dbd
000000f0: 8dea c73b 03f3 813d 9b1b 303c 03ab 8abd
00000100: e16b 8f3d 1084 e63c 4b6b 2f3d 8870 263c
00000110: ee82 9d3d bd27 7d3d 9751 dbbc f935 603c
00000120: 9b68 3cbc 5d5c 813d 0319 103c a269 863d
00000130: 24bd 8f3c 9dae 59bc 06d7 6abd c1f4 c5bc
00000140: 785e 303d 6929 bd3b 46d4 8f3d 4c00 21bd
00000150: 9fb0 453c 5702 9d3c 093d 883d d630 5b3d
00000160: 5b18 e43b 948b 9b3d f7ac 32bd 12a9 563d
00000170: 4c67 3cbd 5b85 113d 491e 933d 4534 1f3d
00000180: 522d fdbc 1756 cd3c b038 1c3d 0142 903c
00000190: 39a0 a5bd f32c 11bd 07df 733a 778a adbc
000001a0: 3a3f 8cbc aad2 0a3d 9a5f afbd 4859 1cbd
000001b0: 87c1 52bd dd05 47bd 9653 1b3c 712f 82bd
000001c0: 8397 663d 1c50 d73c 5b04 5abd 9318 a8bc
000001d0: 3abe 1e3d f158 0ebd e83f 6f3a 64c1 28bd
000001e0: 3e3c 2e3d 955b 303d 5ee1 a6bd 7ef1 a63b
000001f0: 23ca c23c d7e3 d7bc d6c3 3d3d 05fc 2ebd
00000200: f64f 8dbb 37c3 4bbc 01ea 593d 61dc 3e3d
00000210: 5484 10bd 8e0a 8ebd a2ea 7ebd a3eb 5abd
00000220: f29b 8738 4bd0 ac3c bd14 123d 9d76 333d
00000230: 47e4 373d 4763 223d 298b 4d3d da02 44bd
00000240: b7b3 26b9 4925 e33c 21cc 7c3b ed3a 1b3d
00000250: 2233 883c ff16 ce3c a169 e9bc dd44 8dbb
00000260: 8b41 b9bc 9261 c2bd 95b2 2ebd 07f0 f4bb
00000270: 8b76 1b3c d44d 23bd ba04 85bd e188 8abd
00000280: 5a98 82bc 0af9 27bd 293d 3e3d 81ee c4bc
00000290: d246 093c 4e8b 2abd 6a69 d6bd 087b a83c
000002a0: 947b a5bd 8cfb b0bd 10d6 55bd 004a 733c
000002b0: 3555 f43c bda3 863d 9ab1 06bd ae98 8abd
000002c0: 0395 49bd ee89 6dbc e6bb 6e3d 3b5e 253d
000002d0: 4c09 09bd 5f13 efbc e004 86bd 959d 863d
000002e0: 5707 ecbc c01a b4bd 4745 2dbc d9ce a53b
000002f0: 9c7d 913d 0478 673d e05f af3b 96fd 4f3b
00000300: 68db c43b 6546 0e3c be78 4dbd 588b f13c
00000310: 3b08 64bd c794 4c3d 910d 7b3c b3d2 a83c
00000320: 0bc2 b0bc 5c33 7f3c 5b01 903b 4659 22bc
00000330: e543 6fbd 4b80 36bd 9101 15bd 6fa3 e4bc
00000340: 691d 13bd a06d bfbd 7679 a93c 4688 c8bc
00000350: 314a 97bd 93bf 01bd a38b 813d 5d0d ccbc
00000360: d634 033d 1dd8 4cbd 8635 a7bd 6146 d33b
00000370: 2f5c 773d 33b8 7ebd 9f75 82bd 280a 90bd
00000380: c99a 88bd 2bd3 1b39 651f aabc 39bd 013d
00000390: adce 4e3d 37ec ae3c 0d07 90bc ab9c 8dbd
000003a0: d85e c13b f0f6 6fbd 1f1d 5b3d 67a7 93bd
000003b0: 569a f8bc af65 253c c113 75bd faa5 77bd
000003c0: 916e 953d fe74 a0bb 14bb 893d e8fb 6a3d
000003d0: f297 9e3c d826 0f3d 8c7e 21bd b52b 81bc
000003e0: 1c57 4c3b b69c 98bb 021b 5e3d c31e 99bb
000003f0: d573 133d 7548 5a3d be7a b7bb ef49 da3d

layers.1.2.weight f4 [100]
0.98629755 0.9847404 0.9867715 0.95052916 0.9867819 0.98076135 0.98408294 0.97364163
0.9876986 0.9987259 1.0058155 0.9889068 0.9904122 1.0045618 1.0119923 1.0008423
0.99444133 0.9913739 0.9831622 0.9881138 0.9733532 0.97590876 0.99942505 0.99032867
0.98697096 1.0157303 0.9788439 0.9885206 0.9839457 0.97756237 0.99102926 0.9879767
0.99551487 0.98164785 0.9803712 0.9774409 0.98407286 0.99106157 0.9867496 0.99679005
0.98476523 0.99746144 0.983921 1.0103053 1.0071166 0.97602177 0.9827842 0.9759595
1.0049232 0.97501856 1.0053542 0.99182844 0.98595953 0.98632914 1.0082444 1.0137353
0.9849528 0.9932742 0.97696483 0.98330677 0.99924004 0.98901784 1.0136296 0.9818307
0.9975704 0.963369 1.0005636 0.9711666 0.9854151 0.99449724 0.994166 0.97756135
1.0088762 0.99326897 0.98209643 0.9855519 1.0069122 0.9768599 0.99596727 0.9871481
0.99093604 1.0172389 0.99007714 1.0031185 0.97180724 0.9876381 0.9833902 0.9850978
0.9699769 0.9825406 0.9900001 1.0040269 0.98782945 1.0029613 0.9760569 0.9921188
0.982493 0.9952846 0.98633885 0.99540967
00000000: ff7d 7c3f f217 7c3f 0f9d 7c3f e155 733f
00000010: bd9d 7c3f 2d13 7b3f dcec 7b3f 9440 793f
00000020: d1d9 7c3f 80ac 7f3f 90be 803f ff28 7d3f
00000030: a78b 7d3f 7b95 803f f788 813f 9a1b 803f
00000040: b593 7e3f aeca 7d3f 85b0 7b3f 07f5 7c3f
00000050: ad2d 793f 28d5 793f 52da 7f3f 2e86 7d3f
00000060: 21aa 7c3f 7303 823f 8495 7a3f b00f 7d3f
00000070: dee3 7b3f 8741 7a3f 18b4 7d3f 0aec 7c3f
00000080: 10da 7e3f 464d 7b3f 9bf9 7a3f 9139 7a3f
00000090: 33ec 7b3f 36b6 7d3f 9f9b 7c3f a22d 7f3f
000000a0: 9319 7c3f a259 7f3f 3fe2 7b3f af51 813f
000000b0: 32e9 803f 90dc 793f bf97 7b3f 7bd8 793f
000000c0: 53a1 803f d19a 793f 72af 803f 78e8 7d3f
000000d0: d867 7c3f 1180 7c3f 270e 813f 14c2 813f
000000e0: de25 7c3f 3847 7e3f 5e1a 7a3f feb9 7b3f
000000f0: 32ce 7f3f 4630 7d3f 9dbe 813f 4259 7b3f
00000100: c660 7f3f 5a9f 763f 7812 803f 609e 783f
00000110: 2a44 7c3f 5f97 7e3f aa81 7e3f 7641 7a3f
00000120: db22 813f e046 7e3f ac6a 7b3f 214d 7c3f
00000130: 80e2 803f 7e13 7a3f b6f7 7e3f bdb5 7c3f
00000140: fcad 7d3f e234 823f b275 7d3f 3066 803f
00000150: 5cc8 783f dad5 7c3f 76bf 7b3f 5f2f 7c3f
00000160: 6850 783f c887 7b3f a670 7d3f f483 803f
00000170: 64e2 7c3f 0961 803f ddde 793f 7ffb 7d3f
00000180: a984 7b3f f9ca 7e3f b480 7c3f 2bd3 7e3f

layers.1.2.bias f4 [100]
0.0110839745 -0.0023800626 0.012886873 0.014621754 -0.007839783 -0.00394188 0.011463434 -0.07197949
-0.0016760249 0.01741634 0.02210543 0.02763199 -0.014652614 -0.014966231 -0.01755672 -0.007853086
-0.0052400646 0.011207779 -0.031134803 0.014371054 -0.01067488 -0.00942176 -0.019529628 0.024989717
-0.006944878 -0.0201175 -0.0013293332 0.016017113 0.009013565 -0.00373172 -0.0121303955 0.025594465
-0.010318646 0.012977754 -0.0065281624 0.015257881 0.010808547 0.039158996 -0.0062242537 -0.0112015605
-0.031521663 0.014663068 -0.008924204 0.018074462 -0.015257021 0.0076202485 -0.009982073 0.008198515
0.025687264 0.006707771 0.025371512 0.0010628495 0.012578373 0.010618259 0.022769568 -0.015557595
-0.0003881918 0.014790132 0.007898887 -0.0005091474 -0.011888045 0.016270123 0.020285064 0.009857148
-0.014748875 0.08745078 -0.0098616425 0.010431278 0.012210474 0.019643288 -0.012091507 0.010953332
-0.015955755 -0.016740818 -0.0033966398 0.008872289 -0.01324237 -0.012947846 0.014461106 -0.018851686
-0.055180736 0.022651736 0.0053981133 0.015876895 -0.01803848 0.0075042583 0.010750648 -0.00784902
0.001102036 -0.0036610398 0.011091205 0.021777036 0.025139341 -0.016445767 -0.0037935658 -0.015191411
-0.0025380782 -0.02254379 0.0018462391 0.021432552
00000000: 8f99 353c d3fa 1bbb 7723 533c 1590 6f3c
00000010: 6f72 00bc e32a 81bb 21d1 3b3c fc69 93bd
00000020: 10ae dbba b6ac 8e3c 7216 b53c 7c5c e23c
00000030: 8411 70bc ec34 75bc 1cd3 8fbc 3baa 00bc
00000040: d9b4 abbb d5a0 373c 6a0e ffbc 9274 6b3c
00000050: b1e5 2ebc ba5d 1abc 99fc 9fbc 3cb7 cc3c
00000060: dc91 e3bb 75cd a4bc 053d aeba 5236 833c
00000070: a2ad 133c df8f 74bb 91be 46bc 7cab d13c
00000080: 8a0f 29bc a5a0 543c 32ea d5bb 31fc 793c
00000090: 5516 313c 2f65 203d d3f4 cbbb c086 37bc
000000a0: dc1c 01bd 5d3d 703c d336 12bc e510 943c
000000b0: 96f8 79bc 47b3 f93b d98b 23bc 1053 063c
000000c0: 196e d23c ddcc db3b ebd7 cf3c 504f 8b3a
000000d0: 8515 4e3c 35f8 2d3c 3f87 ba3c 48e5 7ebc
000000e0: 3986 cbb9 4f52 723c 556a 013c 4e78 05ba
000000f0: 13c6 42bc ec48 853c dd2c a63c e07f 213c
00000100: 44a5 71bc 6519 b33d ba92 21bc f3e7 2a3c
00000110: 710e 483c f6ea a03c 751b 46bc 9b75 333c
00000120: a5b5 82bc 0a24 89bc 299a 5ebb 145d 113c
00000130: 87f6 58bc 3423 54bc 46ee 6c3c da6e 9abc
00000140: 3205 62bd 2290 b93c a8e2 b03b 4310 823c
00000150: 6fc5 93bc 48e6 f53b 7c23 303c 2d99 00bc
00000160: 3172 903a 0eee 6fbb e3b7 353c c165 b23c
00000170: 05f1 cd3c 46b9 86bc 799d 78bb 65e5 78bc
00000180: e355 26bb c1ad b8bc 81fd f13a 5293 af3c

layers.1.2.running_mean f4 [100]
0.2925625 0.23868145 0.42996863 0.34358752 0.38461763 0.31966433 0.28738454 0.25741458
0.3417375 0.33045933 0.37559327 0.3943645 0.33154213 0.41780576 0.2675632 0.36110258
0.47890788 0.2315044 0.2886383 0.36491576 0.38075146 0.67653835 0.38323933 0.31994045
0.2693106 0.364572 0.27218705 0.31311628 0.3187053 0.30571935 0.35351303 0.30557576
0.25303972 0.36731577 0.31443754 0.35306332 0.2795624 0.26608378 0.35501146 0.40453017
0.24054517 0.3222545 0.33380637 0.40639853 0.31541353 0.4725345 0.44184297 0.29773048
0.4419979 0.25229943 0.2551875 0.46715906 0.39643884 0.32036814 0.3771535 0.37606397
0.17845179 0.49859145 0.30636278 0.27350315 0.41423228 0.24451743 0.29301757 0.32469293
0.3245803 0.5223912 0.33110228 0.44624788 0.3046232 0.32705677 0.35740182 0.3280116
0.36777294 0.5688817 0.25102106 0.29639006 0.32420254 0.2695103 0.5219765 0.21355546
0.29983357 0.2844733 0.3656661 0.2808834 0.30926535 0.2623539 0.31186882 0.38809824
0.34218767 0.46817133 0.29975325 0.32132798 0.62641376 0.3975478 0.31500265 0.27082738
0.25144643 0.19343115 0.22682473 0.37962368
00000000: c1ca 953e e968 743e d924 dc3e b4ea af3e
00000010: 9aec c43e 0bab a33e 1124 933e d8cb 833e
00000020: 38f8 ae3e f731 a93e c34d c03e 25ea c93e
00000030: e4bf a93e a3ea d53e 0bfe 883e 70e2 b83e
00000040: 6a33 f53e 7d0f 6d3e 66c8 933e 3dd6 ba3e
00000050: dbf1 c23e 9e31 2d3f f237 c43e 3ccf a33e
00000060: 14e3 893e 2ea9 ba3e 1a5c 8b3e c750 a03e
00000070: 572d a33e 3f87 9c3e a9ff b43e 6d74 9c3e
00000080: 6c8e 813e d010 bc3e f5fd a03e b7c4 b43e
00000090: ce22 8f3e 223c 883e 10c4 b53e 941e cf3e
000000a0: 7951 763e 8bfe a43e abe8 aa3e 7813 d03e
000000b0: e27d a13e 0bf0 f13e 3e39 e23e 2170 983e
000000c0: 8c4d e23e 642d 813e f0a7 823e 792f ef3e
000000d0: 08fa ca3e 4b07 a43e 431a c13e 758b c03e
000000e0: 11bc 363e 6147 ff3e 95db 9c3e 9b08 8c3e
000000f0: 4116 d43e c762 7a3e 6606 963e 273e a63e
00000100: 642f a63e 6ebb 053f 3d86 a93e 9a7a e43e
00000110: 92f7 9b3e fc73 a73e 5ffd b63e 23f1 a73e
00000120: bc4c bc3e 3ba2 113f d585 803e 70c0 973e
00000130: e0fd a53e 41fd 893e 40a0 053f 48ae 5a3e
00000140: c983 993e 7ca6 913e 9638 bb3e f3cf 8f3e
00000150: 0758 9e3e 4053 863e 45ad 9f3e d0b4 c63e
00000160: 3933 af3e 27b4 ef3e 4279 993e 1a85 a43e
00000170: a75c 203f 638b cb3e 0748 a13e e3a9 8a3e
00000180: 96bd 803e d112 463e be44 683e 095e c23e

layers.1.2.running_var f4 [100]
0.40448606 0.19973975 0.32474634 0.44539908 0.314551 0.21024165 0.3662255 0.19946365
0.81023777 0.21462238 0.21939263 0.2040303 0.13952382 1.0792783 0.41507465 1.1884506
1.5017174 0.30706143 0.64610505 0.27938882 0.5176923 3.917002 1.0377563 0.21884313
0.41754565 0.43494293 0.14254084 0.7773588 0.5073362 0.20332795 0.657662 0.21948437
0.43558988 0.2889074 0.4470223 0.9240148 0.33640584 0.1049889 0.6446106 0.40253386
0.15791225 0.4705212 0.370054 0.46217296 0.8569963 0.28781256 0.8869942 0.35427704
0.30356959 0.14367764 0.27481434 1.4471294 0.31115323 0.70750004 0.91989493 0.68857217
0.17224641 0.66567427 0.15552586 0.22847094 0.93418473 0.25352168 0.29848194 0.3850699
0.50393385 2.1754847 0.82358813 0.31534407 0.5043405 0.52649754 0.2139445 0.2402109
0.5900844 2.3795247 0.29482925 0.26606 0.72901356 0.27771702 0.35672078 0.1889173
0.53922266 0.21736996 0.27746388 0.2559039 0.35676402 0.14698811 0.48084766 0.23510647
0.42178398 0.3029477 0.2806305 0.2085527 0.58433753 0.19656888 0.35231218 0.4212743
0.33143318 0.16900969 0.31129083 0.24372353
00000000: cc18 cf3e 9488 4c3e 2745 a63e 590b e43e
00000010: d40c a13e 9649 573e e981 bb3e 3340 4c3e
00000020: be6b 4f3f f8c5 5b3e 76a8 603e 52ed 503e
00000030: 55df 0e3e cb25 8a3f aa84 d43e 261f 983f
00000040: 4738 c03f 2837 9d3e 2467 253f 0d0c 8f3e
00000050: 7c87 043f 29b0 7a40 33d5 843f 6a18 603e
00000060: 8bc8 d53e d7b0 de3e 3af6 113e fc00 473f
00000070: c9e0 013f 3435 503e 895c 283f 83c0 603e
00000080: a305 df3e aceb 933e 1be0 e43e 3c8c 6c3f
00000090: 633d ac3e 6c04 d73d 3305 253f eb18 ce3e
000000a0: c0b3 213e 28e8 f03e b877 bd3e efa1 ec3e
000000b0: 1c64 5b3f 2b5c 933e 0d12 633f cd63 b53e
000000c0: 796d 9b3e 3b20 133e 77b4 8c3e 893b b93f
000000d0: 7a4f 9f3e b91e 353f 3c7e 6b3f 4446 303f
000000e0: 5d61 303e a169 2a3f 2c42 1f3e 49f4 693e
000000f0: bb26 6f3f 98cd 813e a0d2 983e e227 c53e
00000100: cf01 013f 243b 0b40 acd6 523f c774 a13e
00000110: 761c 013f 8bc8 063f 4414 5b3e d9f9 753e
00000120: c50f 173f 224a 1840 dcf3 963e 0439 883e
00000130: a2a0 3a3f ed30 8e3e 1ba4 b63e 8973 413e
00000140: 7f0a 0a3f 3b96 5e3e bf0f 8e3e d605 833e
00000150: c6a9 b63e 0d84 163e aa31 f63e c0bf 703e
00000160: 12f4 d73e f61b 9b3e cdae 8f3e d78e 553e
00000170: 2597 153f 5a49 493e 4362 b43e 44b1 d73e
00000180: 9cb1 a93e e010 2d3e 8361 9f3e a992 793e
